quad_standalone/policy_weights/Dense_3_weights.npy (npy, 6272 bytes, 1 tensors)

array f4 [128, 12]
00000000: 7ed4 adbb 2b98 473c 7fd9 b4bb 6852 94bd
00000010: 9a57 15bd 60b5 e83c d247 8bbc e30f cc3c
00000020: 825c 33bc 4903 0bbd 111b e53c 144e 15bd
00000030: 8371 fb3b 9ae0 f63c 982f cb3c 80dd 9abc
00000040: 9396 3fbb 14f2 08bd 973f 113b a762 b53c
00000050: 0af8 573c eb1c 6bbc 3d30 d63b a6aa 3cbc
00000060: f87d fabc c215 b43d f1ad a8bc 059b 083d
00000070: fe0b c23c e5e8 dfbb f494 bb3c 3dd0 ecbc
00000080: 6a39 6cbc b288 8ebb f11e 54bc 5d6c 813c
00000090: 736d a4bc 6343 c7ba 5d12 48bb 2d48 8c3d
000000a0: c392 393d 4ee5 ca3b 109d ae3c 1562 4dbd
000000b0: 6906 113d d162 c1bc dddd 953c 46c6 ca3d
000000c0: 1b63 c5bc 708c a9bc 05cb 96bb 435e e8bc
000000d0: 9f9d e73c 536c ddbc 6ef6 013d 968a 8a3c
000000e0: 6941 543c caac 25bd 455a 9d3c 6c2c ecbd
000000f0: a160 19bd f5de d6bc dace 1f3e 251f 3e3c
00000100: c633 133d 5394 6bbb f932 69bc 8ba9 c2bb
00000110: 0634 6b3c 3d69 16bd 762f 193d 17d9 7ebd
00000120: 0ca9 7e3c c863 393c f84c 063c f14a 81bc
00000130: 431e 033d 1f06 06bd 90a9 f63b 0a07 98bc
00000140: 0ff2 2dbd 0d90 2fbc 4de1 b9bb 5a4e 2c3d
00000150: e2f5 2b3b 6ce5 54bd 9f0b 49bc 2891 263d
00000160: a48c 0a3c 8b21 b93b ca2a c3bb cdf2 e23b
00000170: ce4f 82bc e897 c43c 4f70 093c 7f3e 1b39
00000180: 0e91 483c 71d5 433d 7053 003d 49f9 6dbb
00000190: 4149 efbc d19b 033c 14c9 e0b9 8e16 e33c
000001a0: 6c1a 94bc f6bf dcbc 4635 323c 3eba 533d
000001b0: 7e61 69bb 5734 5a3c 9298 b6bc 627d e83b
000001c0: 1bc1 7fbc 48df 19bc f27c 8e3b f4f2 413d
000001d0: 6e2a dbbc f3ad e93c 9ff9 82bc 8ff3 353c
000001e0: 3687 653c 8bab 2bbc 58fb 273c 59f0 093c
000001f0: 884e 18bd 85b0 993c c1c7 1bbd 963f f13c
00000200: be4e 893c bbb6 253d 9a08 993c 3c82 0a3c
00000210: 7370 d6bc 6f89 f83a 537f f33b f14d efba
00000220: 8217 acbb 8329 a9bb 7dbe 19bd 7807 ca3b
00000230: 4c52 78bd 8fe9 243d a1ef a43c 1545 34bd
00000240: 5e96 863c a11d 07bd f3ff 88bc e358 5aba
00000250: 4ab7 993c 870e c93c c89e 9c3b dbc9 8e3b
00000260: eb8c 81bc 3219 db3c 822b 833c 9db2 9c3c
00000270: 0b40 073c ae27 a13c 4838 51bd 3fe0 843d
00000280: 9402 8b3c 525e 97bd 846b 293d 6c59 2fbd
00000290: 794a 903d 7dae 4f3d 611f a4bc e235 653c
000002a0: 55ae d3bc 39d0 ec3c 3270 a23d 0808 80bb
000002b0: b6e8 dc3c d828 8e3c 57ec bebc 483c 04bd
000002c0: 00c2 f6bc 4d9e febb 1642 83bc 95b1 afbc
000002d0: fdec fa3a 453e a7b9 681d 2bbb 1c05 69b9
000002e0: 3798 803b 1ab3 b4bc c037 31bd 5573 ecbc
000002f0: 2e7a c93c ad3e e23c 6fb1 2d3d 458d 953d
00000300: b804 883c 9ece f43b 0b5b abbc a70b d13a
00000310: b10b a9bd f405 a53c 0bc5 123c 9fb3 613c
00000320: a261 0c3d edd1 a53c fff8 79bc 1773 873b
00000330: 4b23 e2bb 71ac 683a dcd3 6cbc d938 0c3d
00000340: 4a90 10bd 7d54 633c 254b fbbc 4585 813c
00000350: c26b 533d 510d b93c 7918 07bb a4a0 673d
00000360: 215e 553c 5aa6 ad3c 8517 3abd 93a5 5fbc
00000370: 5cb5 8b3c f7d8 4fbc 930b d9bc 32ba c3bb
00000380: 3057 33bb 2cf4 fa3a fccc 5abb 9f11 5abd
00000390: af2e 91bc ce89 1bbd 3d58 163c 0f4e a9bc
000003a0: 3248 2dbc 514e f73b f855 153d f3e3 423d
000003b0: 6aad 13bd a3cb 82bc c8c4 173d f042 1cbd
000003c0: 0158 c0bc 13e8 acbc e21b 13bc 6e5c 4f3d
000003d0: b287 27bd dd25 17bb 81bc 06bc 977d 81bc
000003e0: 79ae 3d3c 32d1 a63c b183 4e3c ca14 82ba
000003f0: 66f7 a13c 06b5 1d3d 79c7 c4bc 9656 073d
-0.005304872 0.012182276 -0.0055190916 -0.0724228 -0.036460496 0.028406799 -0.01700202 0.02490992
-0.010947349 -0.03393868 0.027967008 -0.036451414 0.0076734438 0.030136395 0.024802968 -0.018904448
-0.0029234036 -0.03343399 0.0022163147 0.022141768 0.013181696 -0.014350156 0.006536512 -0.011515295
-0.030577645 0.087932125 -0.020590754 0.033350963 0.023687359 -0.006833183 0.022898175 -0.02890789
-0.014417985 -0.0043497914 -0.01294683 0.015798742 -0.02007172 -0.0015202578 -0.0030528523 0.06849704
0.04530598 0.006191886 0.021315128 -0.050142366 0.035406504 -0.02360669 0.01829427 0.09901099
-0.024095109 -0.020696849 -0.0046018385 -0.02836526 0.028273402 -0.027029192 0.031729154 0.016911786
0.012955048 -0.040447988 0.019208083 -0.1153191 -0.037445668 -0.026229361 0.15606251 0.011604105
0.035938047 -0.0035946562 -0.014233344 -0.0059406213 0.014355665 -0.036721457 0.037398778 -0.06221875
0.015543234 0.011315294 0.008197062 -0.015782805 0.03201128 -0.03272068 0.0075275376 -0.018558044
-0.042467173 -0.010715497 -0.00567261 0.04206691 0.0026239087 -0.051976606 -0.012270837 0.040665776
0.008456383 0.0056497506 -0.0059560286 0.0069259168 -0.015907194 0.023998216 0.008388593 0.00014805234
0.012241615 0.047810975 0.031329572 -0.0036311916 -0.029209735 0.008032755 -0.00042874424 0.027720716
-0.018079005 -0.026947003 0.010876959 0.051691286 -0.0035611088 0.013318143 -0.022289548 0.007095025
-0.015610005 -0.009391613 0.0043483907 0.04735084 -0.02675363 0.028525328 -0.01598817 0.011105432
0.014009288 -0.010477911 0.010252796 0.00841912 -0.03718427 0.018760929 -0.038032297 0.029449265
0.01676118 0.04045747 0.01868086 0.008453902 -0.026176667 0.0018961857 0.0074309497 -0.0018257481
-0.005251826 -0.0051624193 -0.03753518 0.006165441 -0.06062536 0.0402618 0.020133795 -0.044011194
0.016429123 -0.03298724 -0.016723609 -0.0008329285 0.018764157 0.02454306 0.0047796704 0.004357559
-0.015814265 0.026745412 0.016011957 0.019128138 0.008255015 0.019672241 -0.051079065 0.06488084
0.016969003 -0.07391037 0.0413623 -0.04280989 0.070454545 0.050703514 -0.020034494 0.013989897
-0.025839964 0.028907882 0.07931556 -0.0039072074 0.026966434 0.01735346 -0.023306055 -0.03228405
-0.030121803 -0.007770336 -0.016022723 -0.021446982 0.0019144114 -0.00031899117 -0.0026110057 -0.00022222515
0.0039243954 -0.022058059 -0.043266058 -0.028863588 0.024594393 0.027617777 0.042405542 0.07302336
0.016603813 0.0074709198 -0.020917436 0.0015948907 -0.08254183 0.02014444 0.0089581115 0.013775735
0.034272797 0.020241702 -0.015257119 0.004133593 -0.00690118 0.00088757934 -0.014454808 0.0342339
-0.035293855 0.013875124 -0.03067548 0.015810618 0.051616438 0.022589358 -0.0020613952 0.056549683
0.01302293 0.021197487 -0.045432586 -0.013650316 0.017054252 -0.012686006 -0.026494777 -0.005973124
-0.00273652 0.0019146255 -0.003338634 -0.05323946 -0.017722456 -0.037973218 0.009176311 -0.020667104
-0.010576295 0.007547178 0.03645894 0.04758067 -0.036054052 -0.015966242 0.0370529 -0.038149774
-0.023479464 -0.021106755 -0.008978816 0.050625257 -0.040900894 -0.002306334 -0.008223654 -0.015806956
0.011577242 0.020363424 0.01260464 -0.0009924409 0.01977129 0.038502716 -0.024020897 0.03304156
