quad_standalone/policy_weights/Dense_0_biases.npy (npy, 2176 bytes, 1 tensors)

array f4 [512]
0	0x3d1fe554	0.039037064
1	0xbbdd577c	-0.0067548137
2	0xbd023b0b	-0.03179459
3	0xbbf4ebd4	-0.007474402
4	0x3c2d1751	0.010564641
5	0xbac6d1b5	-0.0015168699
6	0xbc447f45	-0.011993234
7	0xbd1bf349	-0.03807381
8	0x3c9bc07a	0.019012678
9	0x3c53402f	0.0128937205
10	0x3be5b8d6	0.0070105596
11	0x3bea8bb7	0.0071577686
12	0xbcf2e6c1	-0.029651048
13	0xbd2a02e1	-0.04150665
14	0xbc4ef4ab	-0.012631576
15	0x3be2ee30	0.006925367
16	0x3e18071d	0.14846464
17	0xbc6b1d00	-0.014350176
18	0x3c93f434	0.018060781
19	0xbd60b494	-0.054859713
20	0xbc2b1a4f	-0.010443284
21	0x3d37d89a	0.0448843
22	0xbc74d102	-0.0149424095
23	0x3c8e8521	0.017397465
24	0xbb9859dc	-0.004649384
25	0x3c99dcc5	0.018782029
26	0xbc0a2cbe	-0.008433519
27	0x3cf04fe7	0.029334975
28	0x3cdbac5d	0.026815588
29	0x3d3d8b7d	0.046275605
30	0x3c0dc699	0.008653306
31	0x3ce592a2	0.028024022
32	0xbc0bfa26	-0.008543527
33	0x3ca584d4	0.020204939
34	0x3d59fd73	0.053220224
35	0x3a6018ad	0.0008548599
36	0xbd15ebf5	-0.03660198
37	0xbc2f3a67	-0.010695077
38	0x3c180f21	0.009280951
39	0xbc89b661	-0.016810598
40	0x3c290a09	0.010317334
41	0x3bdc89e1	0.0067303036
42	0xbd42e5d9	-0.04758248
43	0xbcd90dcd	-0.026495839
44	0x3d7e67f8	0.06211087
45	0xbb2146b4	-0.0024608793
46	0x3c102f25	0.008800303
47	0x3c90e835	0.01768885
48	0x3c6e37b1	0.014539645
49	0x3ce9a6ab	0.028521856
50	0x3c4c9500	0.012486696
51	0xbbe200ef	-0.006897084
52	0x3c542567	0.012948371
53	0xbcd834ff	-0.026392458
54	0x3c2adaa6	0.010428106
55	0x3c6472ae	0.013943357
56	0xbc8bb4e9	-0.017054038
57	0xbc64f0b4	-0.013973404
58	0xbc957d54	-0.018248238
59	0xbc0e5cd4	-0.008689124
60	0x3c76e968	0.015070297
61	0xbc7de023	-0.015495333
62	0x3c79ca52	0.015245991
63	0x3cfe0788	0.03100945
64	0xbd1e550d	-0.03865533
65	0x3c814975	0.015782097
66	0xbc2c1818	-0.010503791
67	0x3c19637a	0.009362096
68	0xbc39f8e2	-0.011350842
69	0x3cee44b1	0.029085489
70	0xbbdffd44	-0.0068356115
71	0xbc65716c	-0.014004093
72	0xbc8009d1	-0.01562968
73	0xbc640047	-0.013916082
74	0xbb5b1941	-0.00334318
75	0xbca9ac33	-0.020711994
76	0x3d0e507b	0.03474472
77	0xbce5a1d5	-0.02803127
78	0x3c33b57b	0.010968561
79	0x3cb10526	0.0216089
80	0x3d58fdb5	0.05297633
81	0xbc8e2d57	-0.017355604
82	0x3a4e8154	0.0007877548
83	0x3c0fc58e	0.008775128
84	0x3c1f2593	0.009713548
85	0xb8d3fdef	-0.00010108563
86	0x3d6b948c	0.057514712
87	0x3cacf525	0.021112988
88	0xb5b4d387	-1.3472608e-06
89	0xbbd58be5	-0.006516921
90	0x3d4ca305	0.049960155
91	0x3d0c54ca	0.03426055
92	0x3cd3478f	0.025790958
93	0xbcc9e4c3	-0.024645215
94	0x3c2c96e0	0.010534018
95	0x3cc1a055	0.023636023
96	0xbd2d40a6	-0.04229798
97	0x3b42d811	0.0029730836
98	0xbcb89739	-0.022533046
99	0x3c7e3bc3	0.015517178
100	0xbf064afc	-0.5245817
101	0x3d642316	0.055697523
102	0xbd328c88	-0.043591052
103	0x3c35f9ca	0.011106918
104	0x3bcb32c8	0.006201122
105	0x3db562e4	0.088567525
106	0x3c2696ef	0.010167821
107	0xbd015035	-0.031570632
108	0x3cd31eda	0.025771547
109	0x3d1ec767	0.038764384
110	0x3d7bd282	0.061480053
111	0x3b1be887	0.002378972
112	0x3ce2fd00	0.02770853
113	0x3cd20253	0.025635874
114	0x3d6b263e	0.057409517
115	0x3d8f5948	0.06999451
116	0x3c6f886e	0.01461993
117	0x3c6186ba	0.0137650315
118	0xbd1088b3	-0.035286617
119	0x3d587110	0.0528422
120	0x3ce33d6f	0.027739255
121	0xbc65dc69	-0.014029601
122	0x3c0f2fad	0.008739394
123	0xbcff1066	-0.03113575
124	0xbbf13996	-0.007361601
125	0x3c65dfc7	0.014030403
126	0x3d2d1566	0.042256735
127	0x3c4b4d0e	0.012408508
128	0x3d1c4063	0.03814734
129	0xbd01dd2d	-0.03170507
130	0xbd74a8fb	-0.059731465
131	0x388cd4eb	6.715379e-05
132	0xbc7dbe44	-0.015487257
133	0xbce5cb5b	-0.028051069
134	0xbd1dcd3b	-0.0385258
135	0xbb1504d5	-0.0022738476
136	0xbb04fc75	-0.0020292078
137	0xbd3d9961	-0.04628885
138	0xbd13e696	-0.036108576
139	0xbc859ef5	-0.016311148
140	0x3cb3054d	0.021853114
141	0x3bd058b0	0.0063582286
142	0x3d24ccc5	0.040234346
143	0x3c4c8bf4	0.012484539
144	0x3bf09269	0.007341672
145	0x3beb617b	0.0071832514
146	0xbd00edb2	-0.031476684
147	0x3cccd5c5	0.025004277
148	0x3d5b2207	0.053499248
149	0x3ce00af8	0.02734898
150	0xbc046a30	-0.008081958
151	0x3b4bde2a	0.0031107762
152	0xbd290128	-0.04126087
153	0x3d136bcd	0.03599148
154	0xbc5e149d	-0.013554719
155	0xbb8c42c5	-0.0042804205
156	0x3c7c5066	0.015400028
157	0xbcb74a01	-0.022374155
158	0xbc72213f	-0.014778434
159	0x3b8a983b	0.004229573
160	0x3c12fff9	0.008972161
161	0x3bb3f80c	0.005492216
162	0x3c259fdb	0.010108913
163	0xbc0c1424	-0.008549724
164	0xbca21124	-0.019783564
165	0x3cfc5dbd	0.030806417
166	0x3a6f22ea	0.0009122329
167	0xbce1dc3a	-0.027570833
168	0x3b8d0ca1	0.004304484
169	0x3c485240	0.012226641
170	0xbca6c074	-0.02035544
171	0xba13becf	-0.00056360377
172	0x3b7d5f2a	0.0038661459
173	0xbd19dec8	-0.037565976
174	0x3b9d3e68	0.004798699
175	0xbc914295	-0.017731944
176	0x3cc7a93c	0.02437269
177	0xbd961a51	-0.07329238
178	0x3ce2f726	0.02770574
179	0xbd0aef71	-0.033919755
180	0x3d466191	0.04843289
181	0xbd20727a	-0.039171673
182	0xbc273e94	-0.010207791
183	0x3c96befd	0.018401617
184	0xbc846aa7	-0.016164137
185	0x3d33c54d	0.043889333
186	0xbbb75710	-0.0055950955
187	0x3b67d62a	0.0035375454
188	0x3c8372d1	0.01604596
189	0xbcc87f34	-0.024474718
190	0xbbf521a7	-0.0074808183
191	0x3d373cfd	0.044735897
192	0x3b8d3fe4	0.004310595
193	0xbc745cc5	-0.014914696
194	0xbcac6cb8	-0.021047935
195	0xbc633515	-0.013867636
196	0xbce4c5e7	-0.027926398
197	0x3cbf28b6	0.023334842
198	0xbc66e53e	-0.0140927415
199	0x3ce99be9	0.028516727
200	0x3c70df6d	0.014701706
201	0xbc3c92a9	-0.011509576
202	0x3c108658	0.008821093
203	0x3d31d112	0.043412276
204	0x3bed211e	0.007236614
205	0xbd1d6a4a	-0.038431443
206	0x3d2e67e2	0.04257954
207	0x3cd85861	0.02640933
208	0xbb71c99b	-0.0036893848
209	0x3d09b6f7	0.033621754
210	0x3cabbd4f	0.020964293
211	0xbbd2fcb1	-0.0064388146
212	0xbd2f1ee0	-0.042754054
213	0xbb5f1aec	-0.0034043146
214	0x3d2e48ed	0.042550016
215	0x3c204833	0.009782839
216	0xbbe3e3ae	-0.006954632
217	0xba389bde	-0.0007042269
218	0x3ad122da	0.0015955821
219	0xbb863a2f	-0.0040962915
220	0xbb1b1364	-0.002366268
221	0xbc7e6a49	-0.01552827
222	0xbcab8ff1	-0.02094266
223	0x3c6a674c	0.014306854
224	0x3d033135	0.03202935
225	0xbb62b05e	-0.0034589986
226	0x3c98fa05	0.018673906
227	0x3ca3d495	0.019998828
228	0xbb90c1b1	-0.004417621
229	0x3bd96d50	0.0066353455
230	0xbc888311	-0.01666406
231	0xbc9438c4	-0.018093474
232	0xbb467a54	-0.0030285316
233	0xbc29b2be	-0.010357557
234	0x3d063464	0.032764807
235	0x3cf6add9	0.030112194
236	0x3cfa361a	0.030543376
237	0x3c72e381	0.014824749
238	0x3d117e0c	0.0355206
239	0xbcf0b3cb	-0.029382607
240	0xbcbdd574	-0.023173071
241	0x3c6a3130	0.014293954
242	0x3d374988	0.04474786
243	0x3c9d2a53	0.01918522
244	0xbd081e81	-0.033232216
245	0x3ba85f01	0.0051382785
246	0x3d99a5ae	0.07502304
247	0xbb06b360	-0.0020553693
248	0x3c4d7b77	0.012541643
249	0x3aaafd45	0.0013045451
250	0x39cf0236	0.00039483764
251	0xbc9004b5	-0.01758037
252	0x3cae66c5	0.021289239
253	0x3c91bb89	0.017789619
254	0xbd3be4dd	-0.045872558
255	0x3c68cce7	0.014209009
