quad_standalone/policy_weights/Dense_2_weights.npy (npy, 131200 bytes, 1 tensors)

array f4 [256, 128]
0	0xbdd7128f	-0.10501587
1	0x3d9df1a5	0.07712106
2	0xbbb75f21	-0.005596057
3	0xbd7e9ab1	-0.062159244
4	0x3e2192c2	0.1577864
5	0x3bc70fb6	0.006074871
6	0x3d8b6e95	0.06808201
7	0x3c8d73b3	0.017267084
8	0x3e3f77df	0.18698071
9	0x3dcc8d0e	0.099878415
10	0xbc299581	-0.010350586
11	0x3db44cbb	0.08803698
12	0xbe6b52be	-0.22980782
13	0x3d5c80bc	0.05383371
14	0xbd7b3bcc	-0.061336324
15	0xbd850f69	-0.0649708
16	0x3e0435ec	0.12911195
17	0xbdd354cd	-0.10318909
18	0xbe6a80b9	-0.22900666
19	0xbdba88db	-0.09108134
20	0xbdb129df	-0.086505644
21	0xbe50bd4f	-0.20384715
22	0x3dfa7d03	0.12230875
23	0xbd259e53	-0.040434193
24	0xbc86456e	-0.016390529
25	0xbc2a53e2	-0.010395976
26	0xbe4f147e	-0.20222661
27	0xbd5bdad1	-0.053675476
28	0xbea954e1	-0.3307257
29	0x3e751ef4	0.23937589
30	0xbe38bc9f	-0.18040703
31	0x3e3afaaa	0.18259683
32	0xbd84f9bb	-0.06492945
33	0xbd776497	-0.060398664
34	0xbe12a266	-0.14319763
35	0x3e00a20c	0.12561816
36	0x3e649347	0.22321807
37	0xbc94018e	-0.018067148
38	0x3e14f6a8	0.14547217
39	0xbd9ebe84	-0.07751182
40	0xbc968078	-0.018371806
41	0x3d893c8d	0.06701002
42	0x3dbf930f	0.09354221
43	0xbe2ebaeb	-0.17063491
44	0x3d68cd28	0.056836277
45	0xbe62e407	-0.22157298
46	0xbdcad902	-0.09904672
47	0xbd8c24bb	-0.06842943
48	0x3c9ca071	0.019119473
49	0xbdb9de06	-0.09075551
50	0x3d0b315a	0.033982612
51	0x3e19360a	0.1496202
52	0x3cd988a9	0.026554422
53	0xbcab757a	-0.02093004
54	0xbdd78580	-0.1052351
55	0xbd27bf52	-0.04095394
56	0xbe81cbd2	-0.25350815
57	0x3dbf8f3d	0.093534924
58	0x3d349dca	0.044095792
59	0xbd841731	-0.06449736
60	0xbd98b8ca	-0.07457121
61	0xbc520a37	-0.012819818
62	0x3d70f9fc	0.058832154
63	0x3d1ecb96	0.038768373
64	0xbdddf570	-0.10837829
65	0xbe240db3	-0.16020851
66	0xbd405efe	-0.04696559
67	0x3e0ec588	0.1394254
68	0x3e3b606b	0.182985
69	0x3c6b797e	0.014372228
70	0xbc871f0c	-0.016494296
71	0x3cc8ed22	0.024527136
72	0x3b5d5adb	0.0033776078
73	0xbb156c50	-0.0022800155
74	0xbdcda96f	-0.100420825
75	0xbe12f37d	-0.14350696
76	0x3cd6bb9e	0.02621251
77	0x3ddda97a	0.10823341
78	0x3c733468	0.014844038
79	0x3c1a657f	0.009423613
80	0xbd014ba9	-0.031566296
81	0xbd9b5b60	-0.07585788
82	0x3db13754	0.08653131
83	0x3e2f1e08	0.171013
84	0xbd9a4fe8	-0.07534772
85	0xbd464519	-0.04840574
86	0x3da91859	0.08256597
87	0x3e2f9138	0.1714524
88	0x3e117abf	0.1420698
89	0x3d836d36	0.06417315
90	0xbd68dd6f	-0.0568518
91	0xbbaaef06	-0.005216482
92	0x3c99e6e7	0.01878686
93	0x3d58f58d	0.05296855
94	0x3b7c7459	0.0038521497
95	0xbca2fb13	-0.019895112
96	0xbd4d877e	-0.050178044
97	0xbdf3a021	-0.118957765
98	0xbe22f9ba	-0.15915576
99	0xbe2b1daa	-0.16710535
100	0xbd640276	-0.05566641
101	0x3d9fe805	0.07807926
102	0x3dee6905	0.11641125
103	0x3d020b06	0.031748794
104	0xbca29fa4	-0.019851513
105	0xbd6e28cb	-0.058144372
106	0xbc9b1e1e	-0.01893526
107	0x3d9c2ef7	0.07626145
108	0x3d548fc9	0.051894937
109	0x3d590613	0.05298431
110	0x3e03e91c	0.12881893
111	0x3d29aa11	0.041421954
112	0xbd311482	-0.04323245
113	0xbd947e88	-0.072506964
114	0xbbd9a47f	-0.006641924
115	0xbd158779	-0.03650615
116	0x3e2ee6f3	0.17080288
117	0x3e0dc04b	0.13842885
118	0xbe0c32a2	-0.1369119
119	0xbddefd3a	-0.10888143
120	0xbda7b852	-0.08189453
121	0x3dc43d5d	0.095820166
122	0xbdf0b73e	-0.11753701
123	0x3c24b28d	0.010052335
124	0x3d87c07d	0.06628511
125	0xbd12c7a6	-0.03583493
126	0xbe05b0d7	-0.1305574
127	0xbcfd5e96	-0.030928891
128	0x3da39fde	0.079894766
129	0x3cffe31e	0.031236228
130	0xbda6580f	-0.081222646
131	0xbd9b3993	-0.07579341
132	0xbd6a6e39	-0.057234023
133	0x3dc444a1	0.095834024
134	0xbdc89efd	-0.097959496
135	0xbd84d6e2	-0.06486298
136	0x3d079c74	0.03310819
137	0x3c301d0f	0.010749116
138	0xbc290ac4	-0.010317508
139	0xbda48b70	-0.08034408
140	0x3d2fc5b7	0.042913165
141	0xbdc3a95b	-0.09553786
142	0x3dae97d6	0.08525054
143	0x3d533806	0.0515671
144	0x3d8a8674	0.06763926
145	0x3e67f752	0.22652939
146	0x3d261b21	0.040553216
147	0xbe93e9a8	-0.28889203
148	0xbc40f0ea	-0.011776188
149	0xbdcd2621	-0.10017038
150	0x3d86ac5f	0.06575846
151	0xbc9b3ac9	-0.01894893
152	0xbd0f20ab	-0.034943264
153	0x3e12ebb9	0.14347734
154	0x3d27daa3	0.040979993
155	0xbd6d68be	-0.057961218
156	0xbd837d1d	-0.06420348
157	0x3e1e13e4	0.15437275
158	0xbe596345	-0.21229275
159	0x3dbfac46	0.093590304
160	0x3ccb5f5b	0.024825742
161	0xbb410d73	-0.002945748
162	0xbdf7f297	-0.12106817
163	0x3d896fce	0.06710778
164	0xbc4e15f7	-0.012578479
165	0x3e99aaa2	0.30012995
166	0xbd068c19	-0.03284845
167	0xbd30b612	-0.043142386
168	0xbc7811b0	-0.015140936
169	0x3d449467	0.04799309
170	0xbb3de572	-0.0028975871
171	0xbde30aae	-0.11086021
172	0xbdb45fb8	-0.088073194
173	0x3cbe3d39	0.023222553
174	0xbc2368d6	-0.009973725
175	0x3dc23f8f	0.09484779
176	0x3c188d4a	0.00931103
177	0xbc1a0e11	-0.009402768
178	0x3d7bbd93	0.06146009
179	0xbc0815a1	-0.008305938
180	0x3cfb0eb7	0.030646665
181	0x3d0ac7b3	0.033881854
182	0xbe1e78cb	-0.15475766
183	0xbe37a650	-0.17934537
184	0x3e1b67f1	0.15176369
185	0xbe41e265	-0.18934019
186	0xbd968062	-0.07348706
187	0xbcd33566	-0.025782298
188	0x3cd8e582	0.026476625
189	0x3dbe19e0	0.09282279
190	0xbdab4893	-0.08363452
191	0xbdf09227	-0.11746626
192	0xbda1fb45	-0.07909254
193	0xbd8258fe	-0.0636463
194	0xbdd51ecc	-0.10406265
195	0x3d90ad6f	0.0706433
196	0xbd543c8f	-0.051815566
197	0xbd21edba	-0.039533354
198	0xbd2b6ce2	-0.041851886
199	0xbd97fc88	-0.074212134
200	0xbdca33cb	-0.0987316
201	0xbe031a30	-0.12802958
202	0xbdb7ae13	-0.08968749
203	0x3dbbcd7d	0.09170053
204	0xbe07a14b	-0.13245122
205	0xbd2235fc	-0.039602265
206	0xbca3ffc5	-0.020019421
207	0x3bd5470b	0.006508713
208	0x3bbc50e9	0.00574695
209	0x3d7822af	0.06057995
210	0x3db5124a	0.08841379
211	0x3d86c43c	0.065803975
212	0xbe326a5f	-0.1742339
213	0xbc0f2722	-0.008737357
214	0xbd86db9e	-0.065848574
215	0xbd3fad7a	-0.0467963
216	0x3d90a3df	0.07062506
217	0xbda22df2	-0.079189196
218	0x3d8450ec	0.06460747
219	0xbd3e9f04	-0.046538368
220	0xbd9e7818	-0.0773775
221	0x3e66985d	0.2251906
222	0xbc6999ba	-0.014257843
223	0xbca51c3b	-0.020155063
224	0xbc167164	-0.009182308
225	0xbb330e6b	-0.0027321826
226	0x3d2f12de	0.042742603
227	0x3c864691	0.01639107
228	0xbcebccae	-0.028784122
229	0xbd0298eb	-0.031884115
230	0x3db8f043	0.09030201
231	0xbc8ce352	-0.017198239
232	0xbd1ecbca	-0.038768567
233	0xbd1d2fe5	-0.038375754
234	0xbd8a737e	-0.0676031
235	0xbd99bebf	-0.07507085
236	0x3e1384de	0.14406154
237	0xbd8e2a15	-0.0694162
238	0x3b287734	0.0025705816
239	0xbd11ea8b	-0.03562407
240	0xbea4343f	-0.3207111
241	0x3e06fff0	0.1318357
242	0xbc6413ac	-0.013920706
243	0x3d7c2638	0.061559886
244	0xbe6db19c	-0.23212284
245	0xbdb4fd76	-0.08837406
246	0x3e0e4fe9	0.13897671
247	0xbd94313c	-0.07235953
248	0x3ddec9dd	0.10878346
249	0xbe735f4c	-0.23766822
250	0xbdfb0239	-0.12256283
251	0xbdb5f775	-0.08885089
252	0xbdf356e8	-0.118818104
253	0x3e1b4956	0.15164694
254	0xbdb7545d	-0.08951638
255	0xbe2f2479	-0.17103757
