quad_standalone/policy_weights/Dense_0_weights.npy (npy, 98432 bytes, 1 tensors)

array f4 [48, 512]
00000000: 5edd 563d 7261 7bbe cc3e bdbb 636a 913b
00000010: 670b 0bbe d055 62bd 3c6e 3dbf 31b2 aabe
00000020: 1734 913e d851 4a3e 80f3 713e 4dc8 643e
00000030: d3cd f5bd 85f6 b33e 0085 9dbe ea30 d43c
00000040: 48be 88be 9bf0 87be 0036 8fbd 4b79 793d
00000050: c6a0 543d 28d9 51bd ee1e 6b3e 4c9f 82be
00000060: e088 013e 6e29 f4bd ae5f 243e 5be9 6f3e
00000070: 458e acbd c13d ecbe b23f a93e 8199 71be
00000080: 501a 9abe 062d b33e cb0a ec3d 096e a1be
00000090: de6b 40be 550f a33d 5d82 f03d 7f5f 14bf
000000a0: 1a72 cb3e e3d4 083d 6f07 b23d 59e6 1ebe
000000b0: 832b 1d3d d285 c1bd b2f2 b5be 950b ddbd
000000c0: 7d2b bc3e 282d e1be e01a 61bc 9750 d93c
000000d0: 26c7 d23e 4c60 48bd 407a 8fbe f09f 57be
000000e0: 7c29 9e3d 973a a3bd a751 b6be 910b 1e3e
000000f0: 2736 973b 50a2 bb3d c3e2 ea3d b436 9dbe
00000100: a307 d93e 1ab4 863d 9e6a 8ebe d966 ddbd
00000110: 360c 18bf d06c 34bd 0bc2 35be cb96 85be
00000120: c762 ae3d 62dd 603e c4b3 b3bd c16b 06be
00000130: 196f 97be e1a5 3cbe dd84 923e fea2 b7bd
00000140: ae58 833e d793 943e f9a5 323e abba ccbc
00000150: 14d4 54bd 9361 4f3e 351b 9c3d 82f8 2abe
00000160: 2cc0 d9bc 95a7 a7be 433e bfbd f74a 393e
00000170: f703 ab3e 325e 65be 9992 943c 1660 19be
00000180: 6ecb 73be 1fb6 84be c903 0e3e 154d 353e
00000190: d5f4 5f3e f6c4 1e3e 594b 12be d275 a7be
000001a0: 9b9d 113e d67a b8bd d975 c23e d7ec 103d
000001b0: 0c1e b5bd e20b eabd 87fe dc3e 893f 6dbe
000001c0: c326 5c3e 6565 8b3e 0cc0 b9be 4cae 04be
000001d0: 3f5a 253e d29f a5be 108f 4f3e b962 4e3d
000001e0: 85e9 50be 81e4 d43d 8ee8 1c3d 40ff 55be
000001f0: 2628 dfbc dcf1 6dbd ba33 5a3e d469 a0be
00000200: 6d67 343d 735f 51bd e0a3 ea3d 50b3 853e
00000210: 3f71 dc3e 8d7d bc3e 3bc7 9d3d 548b b93c
00000220: 6c5c 4f3e 7bc6 63be 8b2d 6c3e cc4c 923d
00000230: 1919 86be 766e 02bd b743 b8bd e349 7dbd
00000240: 9a42 65be b375 abbe aa57 a53e 6096 f53c
00000250: 4db5 cf3d d0fc eebd dc85 a53d e931 813e
00000260: 3d24 8b3b e599 953e 517c 48be 2d80 bf3e
00000270: 922a 40be 641d 573e 932e 48be 009c 823e
00000280: f4b1 853e f6c5 2b3c 5606 84be 09c4 9e3b
00000290: c518 333e fdde 10bd 28cc 373c 02eb ab3d
000002a0: 06a0 5e3e 8749 afbe 9869 5bbe 1103 c23d
000002b0: a04c bf3d a604 0f3e 7165 e4bb c420 cfbe
000002c0: 9280 0c3e c6af 003e c2f1 2a3d a0df b03e
000002d0: 9c01 3c3e 86ff 1e3e 4d1c 7b3e 435b ae3e
000002e0: baab 863d a34b 18bf bc20 62be 7bec ddbd
000002f0: ee1c 8e3e b4d5 ab3d d63e 783e 8009 c33e
00000300: 321d a73e 673e a7bd 2c3e 02be 173c 143e
00000310: fc89 dabd ddf0 21be 40ba 27be 30b1 073f
00000320: f7bd 65be c201 23be 5d88 11bf f975 9fbd
00000330: 6c38 3fbc f16f da3d 38af ec3e c909 04be
00000340: 6768 2a3e ed4c ac3e 21ff 53be f993 d1be
00000350: 51e4 653e 488d 34be 8269 8abd 7ef3 11be
00000360: f9d7 f73d 9e2f cabd d66a 72bc df8e d23d
00000370: e9e3 903e 770a b1be 9611 43be 4cb4 ea3d
00000380: 6361 523e 477b 6e3c d66f e63e 2d7c cfbd
00000390: 7cb4 9e3e ec42 233d 440b 733e b528 62be
000003a0: 0f30 87be 6b88 b7bc 181c 2c3e 3766 dc3d
000003b0: 95b6 213e d8dd 7bbe 199d 0b3e e8ff da3e
000003c0: 1855 913d 660c 8bbe 8837 0c3e 956b 7fbe
000003d0: 1a70 653e 3b18 22be d092 da3e f382 25be
000003e0: aa39 60be c14e 953e 0f38 2abe f437 8cbe
000003f0: d9b6 aebe c5b9 e2bd 8402 e73e 36ab 1b3e
0.052457206 -0.24548891 -0.0057753082 0.004437731 -0.13578568 -0.05525762 -0.7399633 -0.33339074
0.28360054 0.19757783 0.23628044 0.22342034 -0.120021485 0.35149017 -0.30765533 0.02590223
-0.26707673 -0.26550755 -0.069927216 0.06090669 0.051911138 -0.051232487 0.22961017 -0.2551216
0.1264987 -0.119219646 0.16052124 0.23428862 -0.08425573 -0.46140864 0.33056408 -0.23593713
-0.300982 0.34995288 0.11525496 -0.31529263 -0.18791148 0.07961909 0.11743615 -0.57958215
0.3973549 0.03340615 0.08692824 -0.15517558 0.038371574 -0.09449352 -0.35536724 -0.10793225
0.3675193 -0.43979764 -0.013739318 0.026527686 0.41167563 -0.04891996 -0.28022957 -0.21057105
0.07722756 -0.079701595 -0.3560917 0.154341 0.0046146098 0.09161818 0.114690326 -0.30705798
0.4238864 0.065773204 -0.27815717 -0.10810632 -0.5939363 -0.044049084 -0.17749803 -0.26091608
0.08514934 0.21959451 -0.08774522 -0.13127042 -0.29576948 -0.18422653 0.28616992 -0.08966635
0.25653595 0.29019043 0.17446126 -0.024991354 -0.051960066 0.20252065 0.07622377 -0.1669636
-0.026580893 -0.32745042 -0.09338047 0.18095003 0.33401462 -0.22399214 0.01813631 -0.1497806
-0.23808071 -0.25920197 0.13868631 0.17705186 0.2187074 0.15504822 -0.14286555 -0.32707077
0.14220278 -0.09007804 0.37980536 0.035382118 -0.088436216 -0.11428048 0.4316294 -0.23168768
0.21499161 0.27225795 -0.36279333 -0.12957114 0.16147707 -0.32348496 0.20269418 0.050387118
-0.2040158 0.10395146 0.03830772 -0.20898151 -0.027240824 -0.058091983 0.21308795 -0.3133074
0.044043947 -0.051116418 0.11457038 0.26113367 0.4305515 0.36814538 0.07704016 0.022649445
0.202501 -0.22243683 0.23064248 0.07143554 -0.26191023 -0.031843625 -0.089972906 -0.061838042
-0.22388688 -0.33488235 0.32293445 0.029978931 0.10142002 -0.11669314 0.08082172 0.2523339
0.0042462633 0.29218975 -0.19578673 0.37402478 -0.1876624 0.21007305 -0.19549017 0.25509644
0.2611233 0.010484209 -0.25786084 0.0048451466 0.17489918 -0.03536891 0.011218108 0.083944336
0.21740732 -0.34235784 -0.21427 0.09473241 0.09340787 0.13966617 -0.0069701006 -0.40454686
0.1372092 0.12567052 0.041734464 0.34545612 0.18359989 0.15527162 0.24522515 0.34054002
0.06575723 -0.5949041 -0.220828 -0.10836121 0.27756447 0.0839037 0.2424272 0.38093185
0.32639462 -0.08166199 -0.12719029 0.14476047 -0.1067085 -0.15814538 -0.16379642 0.5300474
-0.22435747 -0.1591864 -0.568487 -0.077861734 -0.011671167 0.106658824 0.4622743 -0.12894358
0.16641389 0.3365244 -0.20702793 -0.40933207 0.22450377 -0.1763202 -0.06758405 -0.14253041
0.121017404 -0.098723635 -0.0147959795 0.10281157 0.28298882 -0.34578297 -0.19049677 0.1146017
0.20544963 0.014555759 0.450072 -0.101311065 0.30997074 0.039858744 0.23734766 -0.22085841
-0.26403853 -0.022403916 0.16807592 0.107616834 0.15792306 -0.24596345 0.13634147 0.42773366
0.070963085 -0.27157897 0.13693058 -0.24943383 0.22406045 -0.15829556 0.42690134 -0.16163234
-0.21896997 0.29161647 -0.16622947 -0.2738644 -0.34123877 -0.11070589 0.45119107 0.1520203
