quad_standalone/policy_weights/Dense_1_weights.npy (npy, 524416 bytes, 1 tensors)

array f4 [512, 256]
000000 ff 3d 9b 3d 80 4f fb bc 53 c0 5a bb b4 e0 bc bd
       0.07580184 -0.030677557 -0.0033378794 -0.09222546
000010 7d 3c b0 bd a3 d7 f8 bc cf 15 c2 bd 82 0d 06 bc
       -0.08605287 -0.030376261 -0.09476816 -0.008181931
000020 37 8d 08 bc 80 60 86 3d 9f 48 ae be 9c 56 cf bd
       -0.0083344495 0.06561375 -0.3403978 -0.10123941
000030 b7 a8 81 be e3 b7 de bd 25 73 c2 3c b6 f3 19 3c
       -0.25324032 -0.10874917 0.023736546 0.009396484
000040 a7 2d 70 be 76 be 7e bd 4a 06 30 3a 28 38 9b be
       -0.23454915 -0.062193356 0.00067148043 -0.3031628
000050 21 82 9c 3d 01 c0 8f bd b5 de c7 3c 3c 7c 87 3b
       0.076420076 -0.07019044 0.024398187 0.004134683
000060 5e d8 c4 3d 46 e8 dc 3b fd 19 f0 bc d6 c9 46 be
       0.09611581 0.0067415563 -0.029309267 -0.19412932
000070 4b cc 0f bd 34 c1 26 be 8f 8e ec bc 38 c5 92 3c
       -0.03510694 -0.16284639 -0.028876571 0.017916307
000080 d3 13 ef bd e1 0b 0c 3d fc 96 85 3d eb b1 f8 bd
       -0.11673703 0.034191016 0.065229386 -0.1214331
000090 dd a7 10 bd 57 d7 99 3c 3f 3e 0d bd 71 c7 79 bd
       -0.035316337 0.01877944 -0.03448319 -0.060981218
0000a0 85 f3 74 3d 83 63 d1 bd 23 0b 5f 3d 19 46 f0 3c
       0.05980255 -0.102240585 0.05445398 0.0293303
0000b0 38 70 cf 3c ad 37 2a bd 66 d4 5a bd e3 8a 0e 3c
       0.025322065 -0.041557003 -0.053425215 0.008700105
0000c0 95 37 be bd 49 9c fe bc 6c 94 88 3d 9b 61 30 be
       -0.09287945 -0.031080382 0.06668934 -0.17224734
0000d0 ae 2e 2d be 02 7f 12 bd 51 97 ce 3d 8b c4 32 bc
       -0.16912338 -0.035765655 0.10087455 -0.010911117
0000e0 a8 6f 3b 3d 22 6f 06 bd 50 7a 51 bc 8b 5f 88 bd
       0.04576078 -0.03282083 -0.012785509 -0.066588484
0000f0 e1 2f 1a be 06 19 cd bb 13 75 9a 3d bc d3 62 be
       -0.15057327 -0.0062590865 0.075418614 -0.22151083
000100 1c 0d 36 bd 36 ec 0d bd 87 82 20 bd 11 64 53 bd
       -0.044446096 -0.034649096 -0.03918698 -0.051609103
000110 92 6b 89 bd a6 e8 87 bc 06 b2 2f bc 86 27 4c be
       -0.067099705 -0.016590428 -0.010723596 -0.19936952
000120 55 4e da bd 1d cf 16 3d 93 26 86 bd ed d2 2f bc
       -0.10659472 0.036818612 -0.06550326 -0.010731441
000130 c1 24 8d bd 38 9e b2 3d 61 c6 82 3c 3c f9 7a 3b
       -0.06891776 0.08721584 0.015963735 0.0038295528
000140 14 a1 c7 3c 6e 27 c7 bd da 4e e6 bd 03 52 07 3e
       0.0243688 -0.097243175 -0.112455085 0.13214879
000150 8c 91 5c b9 16 7b 8f 3d ca f1 4f bd 32 6c ae bd
       -0.00021035055 0.07005899 -0.050767697 -0.0851673
000160 e1 eb a7 3d ca 5b 59 be 08 5f 5c bc 8a b1 e7 bd
       0.08199287 -0.21226421 -0.013450392 -0.1131316
000170 6b bd 73 be 4f 72 b2 bc 44 e3 e8 bd 0e af 36 be
       -0.23802726 -0.021783022 -0.113714725 -0.17840216
000180 eb b0 55 be 70 61 f7 bc f7 8c 94 bd 98 08 8a 3d
       -0.2086827 -0.030197829 -0.072534494 0.067399204
000190 64 0d 72 bd b4 c2 61 bc da b8 59 bd 34 9d 3e bd
       -0.0590948 -0.013779331 -0.053154804 -0.04653664
0001a0 38 b3 81 3c 64 63 6e bd 21 d8 df bc 75 3f 8c 3d
       0.015832528 -0.058200255 -0.027324738 0.06848041
0001b0 79 08 63 3d 8f 7f b1 bd a3 7b 61 bd 36 05 e7 bd
       0.055428002 -0.08666908 -0.05504955 -0.11280291
0001c0 d7 c6 70 3d bf c5 1f 3d 35 e3 88 3a d2 9b 18 bd
       0.05878338 0.039006945 0.001044369 -0.037257977
0001d0 e7 93 c4 bd 8d 83 6e 3c ac e4 84 3d 88 a4 c0 3d
       -0.09598523 0.014557731 0.06488928 0.09406382
0001e0 33 dc 33 bc 9c 9c a6 3b f9 c7 da bc 64 96 76 bd
       -0.010977793 0.0050845873 -0.026706683 -0.060202017
0001f0 44 5d 39 be f2 91 0d be 75 5f 9c bc 22 5d ed bd
       -0.18101984 -0.13825205 -0.019088486 -0.11590029
000200 16 34 e3 bc 40 74 ba bc 15 b3 23 bd 84 c6 85 3c
       -0.027734797 -0.02276051 -0.039965708 0.016330011
000210 5d 87 11 3e 30 e5 37 bc 47 57 c6 bd 53 e6 94 3d
       0.14211793 -0.011224076 -0.096846156 0.07270493
000220 86 9f b8 3d 78 2f 9d bd 34 d9 0b 3d c6 a1 a8 bc
       0.09014802 -0.076750696 0.034142688 -0.020584952
000230 d2 c2 5e 3d db ed df bd 46 56 c2 bd 53 ab d7 bd
       0.054385014 -0.10934039 -0.094891116 -0.105307244
000240 b6 e1 b9 3d e5 c8 19 3d 52 a8 85 3c 49 1f 29 3c
       0.09076254 0.037545104 0.016315613 0.0103224
000250 ad e8 1c 3d a8 c2 14 bd 3c f4 73 3d 5d 8d 87 bd
       0.038307834 -0.03631845 0.059559092 -0.0661876
000260 d5 84 f9 bd d7 0d 55 bd bf da 01 3c 11 25 53 3d
       -0.12183539 -0.05201515 0.007925688 0.05154902
000270 62 7b 0b bd ac 21 14 bd 68 08 69 be ca de 7a bd
       -0.034053214 -0.036164925 -0.22757113 -0.061247624
000280 9d 48 3d be f8 54 9e b8 98 f8 35 3d 1f 96 4f bd
       -0.18484731 -7.549854e-05 0.04442653 -0.050680276
000290 0c f3 73 bd d1 83 d6 bd 8a 72 6a be 90 54 01 3d
       -0.05955796 -0.10474361 -0.22895256 0.031574786
0002a0 1f 17 e6 bd 33 50 76 3d 69 13 64 bd dd bb e7 bc
       -0.11234879 0.060135078 -0.055682573 -0.028287822
0002b0 a9 76 4a 3d 5f 65 ac 3c fb be 32 3d fa 28 08 bd
       0.04942957 0.021044431 0.043639164 -0.033242203
0002c0 b1 65 b8 3c 1a 63 ff bb be f8 fa bb 89 9d ff 3d
       0.022509428 -0.0077937962 -0.007659047 0.12481219
0002d0 18 8c 0c be 71 b0 2b bd cc 07 44 be 91 9c 6d 3e
       -0.13725317 -0.041916315 -0.191436 0.23204257
0002e0 49 67 26 3d dd 2e d3 bc 3b 51 2b be 48 be 14 be
       0.040625844 -0.025779182 -0.16730206 -0.14525712
0002f0 b0 39 ca 3d c9 ed b4 3d 86 7b cf bd 5d 65 11 bc
       0.09874284 0.088344164 -0.10130982 -0.008874265
000300 f7 fc 4f bd 02 da 06 3c 97 fa bd bd f0 93 ee 3c
       -0.050778355 0.008230688 -0.09276312 0.029123276
000310 2d d7 f9 bd 48 52 ce bc 30 ff e7 bc e8 9a ea 3d
       -0.12199245 -0.02518572 -0.028319925 0.11455327
000320 b3 dd 38 be 7f 23 d1 3c d5 e3 38 3d c5 3d 4e be
       -0.18053322 0.025529621 0.045139153 -0.2014075
000330 b5 40 1c bb be 47 25 bd 59 96 be 3c 5b 63 32 3c
       -0.002384228 -0.04035162 0.02326505 0.010887946
000340 10 c7 4f bd 47 84 b2 bb c9 92 94 bd b8 85 cd bc
       -0.05072695 -0.0054478976 -0.072545595 -0.025088176
000350 28 fa 21 bd de 57 de 3d 86 43 9f bd 5b 95 6e 3b
       -0.03954521 0.10856603 -0.07776551 0.003640494
000360 60 69 01 bd ba 31 86 3c 08 42 c3 bd 55 72 f6 bd
       -0.031594634 0.016381133 -0.09534079 -0.12033526
000370 65 c4 e5 39 f1 c0 85 3d 4e 5e af 3d b5 b5 83 3b
       0.0004382461 0.06530941 0.08562909 0.004019464
000380 f3 40 b4 3c 43 24 a2 bc 6c 9f c0 bd 89 3f 15 3d
       0.022003626 -0.019792682 -0.09405407 0.036437545
000390 56 9b 4a 3a 6c 07 59 bd 24 a1 81 bc 06 c0 91 bd
       0.00077288353 -0.052985594 -0.015823908 -0.07116704
0003a0 1d 84 89 3d e7 10 f9 bd 70 0f a1 3c 25 7e 87 bd
       0.06714652 -0.12161427 0.019660681 -0.06615857
0003b0 4d 92 c3 bc 06 c3 99 3d 16 5d 03 bd 2a 86 03 3e
       -0.023873473 0.07507901 -0.032071196 0.12844148
0003c0 06 1d a1 bd ba 4d bc bd 4c 77 b1 bd 3e a1 d6 bd
       -0.07866864 -0.09194513 -0.08665332 -0.10479973
0003d0 84 de 93 be 75 75 a5 bd c9 b6 d8 bd ea 22 b7 3c
       -0.28880703 -0.08079044 -0.105817385 0.022355516
0003e0 ff 80 11 bd 51 73 95 bd f8 ef 3a 3d 14 b7 cc 3d
       -0.03552341 -0.072973855 0.04563901 0.09995857
0003f0 7b 33 df bc 4e fb 39 be 65 96 6f bd 82 3f 3e bc
       -0.027246227 -0.18162271 -0.058493037 -0.011611821
